Use GPU? True
Model Parameters: 
Dataset: Bin 1
Train # negative samples: 50
Test # negative samples: 100
# contexts to aggregate: 50
*****************************
Begin loading data ...
Data: # train: 10434, # val: 148, # iv test: 149, # dis iv test 38
Data loaded!
(54060, 128)
-- Pre-stored parameters loaded! -- 
Begin digitalizing ...
148 149 38
-- Word-Ngram Pretrained loaded! --
DeepTermRankingListNet(
  (dropout): Dropout(p=0, inplace=False)
  (TermEncoder): ContextPredictionWordNGram(
    (ngrams_embeddings): Embedding(102938, 100)
    (w2v_embeddings): Embedding(84277, 100)
    (fc_out): Linear(in_features=200, out_features=128, bias=True)
    (context_out): Linear(in_features=128, out_features=54060, bias=False)
    (out): LogSoftmax(dim=1)
    (context_embeddings): Embedding(54060, 128)
  )
  (ContextPredictor): ContextPredictionWordNGram(
    (ngrams_embeddings): Embedding(102938, 100)
    (w2v_embeddings): Embedding(84277, 100)
    (fc_out): Linear(in_features=200, out_features=128, bias=True)
    (context_out): Linear(in_features=128, out_features=54060, bias=False)
    (out): LogSoftmax(dim=1)
    (context_embeddings): Embedding(54060, 128)
  )
  (context_features): Embedding(54060, 128)
  (bi_c): Bilinear(in1_features=128, in2_features=128, out_features=1, bias=True)
  (out): LogSoftmax(dim=1)
)
['att_mat', 'TermEncoder.ngrams_embeddings.weight', 'TermEncoder.w2v_embeddings.weight', 'TermEncoder.fc_out.weight', 'TermEncoder.fc_out.bias', 'TermEncoder.context_out.weight', 'TermEncoder.context_embeddings.weight', 'ContextPredictor.ngrams_embeddings.weight', 'ContextPredictor.w2v_embeddings.weight', 'ContextPredictor.fc_out.weight', 'ContextPredictor.fc_out.bias', 'ContextPredictor.context_out.weight', 'ContextPredictor.context_embeddings.weight', 'context_features.weight', 'bi_c.weight', 'bi_c.bias']
…
